examples/data/weights_100n_86e.npy (npy, 460928 bytes, 1 tensors)

array f8 [100, 64, 1, 3, 3]
0.28360068798065186 0.023907789960503578 0.2788463830947876 0.050211988389492035 0.176855206489563 -0.1539914458990097 -0.27336084842681885 -0.41891101002693176
-0.05877776816487312 -0.26952046155929565 -0.3299405574798584 0.09740027040243149 -0.009411797858774662 -0.15473896265029907 -0.08191844075918198 0.024141930043697357
-0.1323324590921402 -0.31651273369789124 -0.4206380546092987 0.11201543360948563 0.03624805435538292 -0.46701574325561523 0.08273595571517944 0.2724909484386444
-0.06342824548482895 -0.24686741828918457 0.3000601530075073 -0.05645275115966797 0.0816522091627121 -0.5877878069877625 -0.26766738295555115 0.16786351799964905
-0.3034214675426483 0.25456324219703674 0.13013726472854614 0.4235762059688568 0.2352311760187149 0.40096402168273926 -0.558086097240448 -0.1925107091665268
0.1441783905029297 0.02111057937145233 -0.3026171326637268 0.14133132994174957 0.228905588388443 -0.03931558132171631 0.027760706841945648 0.047463782131671906
-0.3206713795661926 0.2599915564060211 -0.24468722939491272 -0.1749628782272339 0.2883395850658417 -0.27917852997779846 -0.18952953815460205 -0.39700430631637573
-0.5178301334381104 0.0972866341471672 0.11514385789632797 -0.06216415390372276 -0.3502970337867737 0.16248318552970886 0.2917005717754364 0.08315952867269516
-0.4344528913497925 0.04936414211988449 0.4705600142478943 -0.10573220252990723 -0.38378646969795227 -0.12047872692346573 0.28269651532173157 0.19022081792354584
-0.11647249758243561 -0.003182042157277465 -0.2932327389717102 0.09898500144481659 -0.3492899239063263 0.22195884585380554 0.14569047093391418 -0.3427005708217621
0.08656208217144012 0.34111982583999634 0.18600714206695557 -0.2742505669593811 0.22267843782901764 -0.00850832648575306 -0.4422242045402527 -0.17817121744155884
-0.33502477407455444 -0.16650433838367462 -0.37620046734809875 -0.013168581761419773 0.0820009782910347 0.2316545695066452 -0.2391064465045929 0.10167191922664642
0.19210876524448395 -0.4650131165981293 -0.0890992134809494 -0.1510932594537735 -0.043733760714530945 -0.4226071834564209 0.1637275665998459 0.4044954478740692
0.02403288707137108 -0.6157817840576172 -0.09824790805578232 -0.12979109585285187 -0.05579708144068718 -0.09293189644813538 0.35242146253585815 -0.1579454392194748
0.3102133274078369 -0.19494208693504333 0.09269043058156967 0.06347846984863281 -0.38548964262008667 -0.16510072350502014 0.0656042993068695 -0.2654982805252075
0.21891960501670837 0.13165363669395447 -0.2651855945587158 0.3171987533569336 -0.12199272960424423 -0.5086459517478943 -0.012101919390261173 0.2746899425983429
0.13471737504005432 -0.5331915616989136 0.040357138961553574 0.021503983065485954 -0.12833406031131744 -0.27289915084838867 0.2871050238609314 -0.0936790257692337
0.05918920040130615 0.16104403138160706 0.23643937706947327 0.19775539636611938 -0.0059846858493983746 0.04458856210112572 -0.34269729256629944 -0.20627400279045105
-0.28617697954177856 -0.41053348779678345 0.02673499658703804 -0.0737859234213829 0.10702046751976013 0.4501454532146454 0.08826468884944916 -0.18883490562438965
-0.3377215266227722 -0.2095424085855484 -0.037425294518470764 0.08643816411495209 -0.12069189548492432 0.2784011960029602 -0.23111161589622498 0.22485728561878204
-0.30731502175331116 -0.01271897368133068 0.1330619901418686 0.014932483434677124 -0.2897167205810547 -0.07968769967556 -0.46487972140312195 -0.1624426245689392
-0.47515684366226196 0.10344395786523819 0.16434483230113983 -0.26972463726997375 -0.09290109574794769 -0.265983521938324 0.24773496389389038 -0.2144850194454193
0.318929523229599 0.28901925683021545 0.1731649935245514 -0.007654586341232061 0.2501125931739807 0.12111711502075195 -0.3282696008682251 -0.10827849060297012
-0.43810760974884033 -0.1615666151046753 -0.4296484589576721 -0.10620460659265518 0.07973478734493256 0.5860077142715454 -0.34107640385627747 -0.3974182903766632
-0.15016502141952515 -0.646268904209137 0.178244948387146 -0.417223185300827 0.27278298139572144 0.5016754269599915 -0.44183680415153503 0.031363531947135925
-0.5553264021873474 0.24394036829471588 0.3988584578037262 0.08454980701208115 -0.4603201448917389 -0.4087759256362915 0.17929711937904358 0.0044445134699344635
-0.16418351233005524 -0.2031724601984024 -0.07496552914381027 -0.00613131420686841 -0.07687614113092422 -0.33709287643432617 -0.0157970879226923 -0.19700346887111664
-0.15670622885227203 -0.4627167880535126 0.10951618105173111 -0.10173484683036804 -0.12143674492835999 0.4184359312057495 0.3517853915691376 0.2424073964357376
-0.4027526378631592 0.19309112429618835 0.19944548606872559 0.10896004736423492 -0.05147695913910866 0.17366574704647064 -0.08052150160074234 -0.4764636158943176
-0.14135880768299103 0.11439661681652069 -0.08530282974243164 -0.2369600236415863 0.049423180520534515 -0.3667990565299988 0.3328688144683838 0.12568876147270203
0.1450275480747223 -0.05954599380493164 -0.03286680206656456 -0.313180148601532 0.0018489693757146597 -0.017262637615203857 -0.194453626871109 -0.07108881324529648
-0.4466342329978943 -0.08420515805482864 -0.21876850724220276 -0.193510502576828 0.11974432319402695 0.10978284478187561 -0.023295901715755463 0.10946910083293915
00000000: 0000 0080 8326 d23f 0000 00a0 487b 983f
00000010: 0000 0080 9ed8 d13f 0000 00c0 62b5 a93f
00000020: 0000 0000 31a3 c63f 0000 00e0 fdb5 c3bf
00000030: 0000 0080 be7e d1bf 0000 0020 70cf dabf
00000040: 0000 00a0 1e18 aebf 0000 00c0 d23f d1bf
00000050: 0000 0000 bf1d d5bf 0000 0060 39ef b83f
00000060: 0000 0020 7e46 83bf 0000 0080 7cce c3bf
00000070: 0000 0060 9bf8 b4bf 0000 0080 a9b8 983f
00000080: 0000 0020 45f0 c0bf 0000 00a0 be41 d4bf
00000090: 0000 00e0 bbeb dabf 0000 0020 0bad bc3f
000000a0: 0000 00e0 1a8f a23f 0000 0000 96e3 ddbf
000000b0: 0000 0000 2f2e b53f 0000 00e0 7d70 d13f
000000c0: 0000 0060 d53c b0bf 0000 0000 5a99 cfbf
000000d0: 0000 0080 2f34 d33f 0000 0000 60e7 acbf
000000e0: 0000 00c0 28e7 b43f 0000 0060 28cf e2bf
000000f0: 0000 0060 7621 d1bf 0000 0040 8d7c c53f
00000100: 0000 00e0 416b d3bf 0000 00a0 c34a d03f
00000110: 0000 0080 56a8 c03f 0000 0060 df1b db3f
00000120: 0000 0020 0e1c ce3f 0000 0000 65a9 d93f
00000130: 0000 0060 d7db e1bf 0000 00e0 30a4 c8bf
00000140: 0000 0000 7074 c23f 0000 0000 039e 953f
00000150: 0000 0040 145e d3bf 0000 0020 2517 c23f
00000160: 0000 0040 c74c cd3f 0000 0000 2c21 a4bf
00000170: 0000 0080 4d6d 9c3f 0000 0040 2c4d a83f
00000180: 0000 0040 e185 d4bf 0000 00a0 b3a3 d03f
00000190: 0000 0040 e951 cfbf 0000 0000 2f65 c6bf
000001a0: 0000 00e0 2774 d23f 0000 00a0 0fde d1bf
000001b0: 0000 0000 8142 c8bf 0000 00c0 8468 d9bf
000001c0: 0000 0080 1092 e0bf 0000 00e0 c6e7 b83f
000001d0: 0000 0060 117a bd3f 0000 00e0 fad3 afbf
000001e0: 0000 0040 446b d6bf 0000 00c0 3fcc c43f
000001f0: 0000 00e0 38ab d23f 0000 0060 f149 b53f
00000200: 0000 0080 13ce dbbf 0000 00c0 4146 a93f
00000210: 0000 00c0 a71d de3f 0000 0000 4411 bbbf
00000220: 0000 0020 f58f d8bf 0000 00a0 b1d7 bebf
00000230: 0000 0020 b317 d23f 0000 00e0 2759 c83f
00000240: 0000 0040 24d1 bdbf 0000 00e0 3911 6abf
00000250: 0000 0040 53c4 d2bf 0000 00c0 1457 b93f
00000260: 0000 0020 c45a d6bf 0000 00c0 2569 cc3f
00000270: 0000 0040 fca5 c23f 0000 0060 ceee d5bf
00000280: 0000 00c0 ee28 b63f 0000 0040 e8d4 d53f
00000290: 0000 0000 15cf c73f 0000 0040 528d d1bf
000002a0: 0000 0020 ba80 cc3f 0000 0040 d06c 81bf
000002b0: 0000 00c0 664d dcbf 0000 0080 50ce c6bf
000002c0: 0000 00c0 0b71 d5bf 0000 00a0 0350 c5bf
000002d0: 0000 0020 ab13 d8bf 0000 0020 21f8 8abf
000002e0: 0000 0020 04fe b43f 0000 0060 dba6 cd3f
000002f0: 0000 0040 0a9b cebf 0000 00c0 2b07 ba3f
00000300: 0000 0020 0597 c83f 0000 0060 c6c2 ddbf
00000310: 0000 00c0 34cf b6bf 0000 0020 0657 c3bf
00000320: 0000 0080 4564 a6bf 0000 0000 ff0b dbbf
00000330: 0000 0060 06f5 c43f 0000 00e0 40e3 d93f
00000340: 0000 00c0 139c 983f 0000 0000 7cb4 e3bf
00000350: 0000 0060 c626 b9bf 0000 00a0 fe9c c0bf
00000360: 0000 0060 6f91 acbf 0000 0080 62ca b7bf
00000370: 0000 00c0 128e d63f 0000 0060 8e37 c4bf
00000380: 0000 0000 89da d33f 0000 00c0 dcf3 c8bf
00000390: 0000 0060 8fba b73f 0000 0000 2040 b03f
000003a0: 0000 00c0 dcab d8bf 0000 0040 0522 c5bf
000003b0: 0000 0080 71cb b03f 0000 0080 ecfd d0bf
000003c0: 0000 00c0 8e05 cc3f 0000 00c0 06da c03f
000003d0: 0000 0000 cdf8 d0bf 0000 0000 fc4c d43f
000003e0: 0000 0060 ea3a bfbf 0000 00e0 d346 e0bf
000003f0: 0000 0020 e4c8 88bf 0000 0020 8594 d13f
00000400: 0000 0040 6b3e c13f 0000 00c0 e70f e1bf
00000410: 0000 00e0 b0a9 a43f 0000 00e0 2305 963f
00000420: 0000 0020 406d c0bf 0000 0000 2e77 d1bf
00000430: 0000 00c0 ed5f d23f 0000 0040 59fb b7bf
00000440: 0000 0000 0c4e ae3f 0000 0040 179d c43f
00000450: 0000 0040 a543 ce3f 0000 0080 0c50 c93f
00000460: 0000 00e0 6583 78bf 0000 00e0 4fd4 a63f
00000470: 0000 00a0 c0ee d5bf 0000 00c0 2f67 cabf
00000480: 0000 0040 b950 d2bf 0000 0040 2e46 dabf
00000490: 0000 0040 6b60 9b3f 0000 0060 a2e3 b2bf
000004a0: 0000 0080 b165 bb3f 0000 00e0 2ecf dc3f
000004b0: 0000 00c0 8398 b63f 0000 0000 be2b c8bf
000004c0: 0000 00c0 3a9d d5bf 0000 0020 49d2 cabf
000004d0: 0000 0080 6829 a3bf 0000 00c0 cf20 b63f
000004e0: 0000 0000 aae5 bebf 0000 0040 53d1 d13f
000004f0: 0000 00c0 1095 cdbf 0000 00a0 1fc8 cc3f
00000500: 0000 00a0 0cab d3bf 0000 00c0 670c 8abf
00000510: 0000 00e0 2c08 c13f 0000 0000 ec94 8e3f
00000520: 0000 0000 b88a d2bf 0000 00c0 6966 b4bf
00000530: 0000 00e0 96c0 ddbf 0000 0080 ebca c4bf
00000540: 0000 0040 f868 debf 0000 00a0 4d7b ba3f
00000550: 0000 0060 4009 c53f 0000 0020 2b43 d1bf
00000560: 0000 00c0 5dc8 b7bf 0000 00c0 df05 d1bf
00000570: 0000 0080 c7b5 cf3f 0000 00c0 3e74 cbbf
00000580: 0000 0060 5769 d43f 0000 00a0 4a7f d23f
00000590: 0000 0040 452a c63f 0000 0060 6a5a 7fbf
000005a0: 0000 0040 d801 d03f 0000 0000 8801 bf3f
000005b0: 0000 0080 5e02 d5bf 0000 00a0 23b8 bbbf
000005c0: 0000 0080 f409 dcbf 0000 0000 37ae c4bf
000005d0: 0000 0040 5c7f dbbf 0000 00a0 3930 bbbf
000005e0: 0000 00c0 7f69 b43f 0000 0040 93c0 e23f
000005f0: 0000 0020 32d4 d5bf 0000 0020 4d6f d9bf
00000600: 0000 0080 9b38 c3bf 0000 0020 3cae e4bf
00000610: 0000 0000 bbd0 c63f 0000 00e0 c8b3 dabf
00000620: 0000 00c0 4675 d13f 0000 00a0 b90d e03f
00000630: 0000 00e0 0d47 dcbf 0000 0080 e10e a03f
00000640: 0000 00e0 3bc5 e1bf 0000 0020 7039 cf3f
00000650: 0000 00a0 e586 d93f 0000 0060 0ea5 b53f
00000660: 0000 00a0 e275 ddbf 0000 0080 6229 dabf
00000670: 0000 0040 35f3 c63f 0000 0000 6934 723f
00000680: 0000 0020 f703 c5bf 0000 0020 8e01 cabf
00000690: 0000 00e0 f030 b3bf 0000 0020 261d 79bf
000006a0: 0000 00a0 27ae b3bf 0000 0000 ee92 d5bf
000006b0: 0000 00a0 1c2d 90bf 0000 00e0 6837 c9bf
000006c0: 0000 0020 f30e c4bf 0000 00e0 269d ddbf
000006d0: 0000 00a0 4009 bc3f 0000 0080 4b0b babf
000006e0: 0000 0080 7a16 bfbf 0000 0080 a7c7 da3f
000006f0: 0000 00e0 a683 d63f 0000 00a0 3407 cf3f
00000700: 0000 0000 b3c6 d9bf 0000 00c0 35b7 c83f
00000710: 0000 0000 6e87 c93f 0000 0040 cee4 bb3f
00000720: 0000 0020 305b aabf 0000 00e0 ad3a c63f
00000730: 0000 00a0 0e9d b4bf 0000 0040 617e debf
00000740: 0000 00a0 0b18 c2bf 0000 00c0 1849 bd3f
00000750: 0000 0000 68d6 b5bf 0000 00c0 b454 cebf
00000760: 0000 00c0 fe4d a93f 0000 00c0 a279 d7bf
00000770: 0000 0000 b94d d53f 0000 00c0 9116 c03f
00000780: 0000 0040 4390 c23f 0000 0000 d07c aebf
00000790: 0000 00e0 ead3 a0bf 0000 00c0 240b d4bf
000007a0: 0000 00c0 234b 5e3f 0000 0000 4cad 91bf
000007b0: 0000 0040 dbe3 c8bf 0000 0060 e032 b2bf
000007c0: 0000 00c0 a795 dcbf 0000 0020 788e b5bf
000007d0: 0000 0040 9b00 ccbf 0000 00c0 f3c4 c8bf
000007e0: 0000 0060 90a7 be3f 0000 0080 ba1a bc3f
000007f0: 0000 0080 e1da 97bf 0000 00c0 2a06 bc3f
